1. ML_DL/Day2/model.pkl (torch, 637185 bytes, 2 tensors)

weight f4 [200, 784]
-0.062120456 -0.043208346 0.11720712 -0.09976424 -0.089544125 -0.005193403 0.0051197736 -0.013153169
0.024164833 -0.0076501714 -0.0062048086 0.01778021 0.004365203 0.013264136 -0.04626308 -0.052417796
0.020285398 0.030838784 0.005573397 0.03634092 -0.02752799 -0.051851887 -0.0010492024 -0.043138716
-0.0047477386 -0.03594945 -0.014270431 -0.04810118 -0.00083590864 -0.020460788 -0.0047335355 0.060565084
0.05866464 0.032589193 -0.0008417583 -0.085534714 -0.06747689 0.042311758 -0.0018053163 -0.01742083
-0.082537435 0.024019862 -0.015885716 -0.044205874 -0.019394394 -0.06150915 0.055969056 -0.0070713474
0.029377686 0.045083713 -0.052550275 -0.053037494 0.09596537 0.0068122656 0.06641103 0.0213237
-0.049412403 0.017455721 0.07946192 0.03740131 -0.053395774 0.053661577 -0.06393092 0.01823876
-0.011237778 0.04588153 0.040051278 0.024967423 0.04782454 -0.0055005928 -0.030697912 0.03520052
-0.028113116 0.057644516 -0.14349847 0.011849062 0.06424358 0.04092366 0.053038795 -0.016902164
-0.047896262 -0.013595547 -0.096598096 0.001742882 -0.030767651 -0.07959392 0.026624719 0.0062707467
-0.0015452397 0.078899086 -0.062041197 0.012729596 0.010227518 -0.0073178085 0.008267521 -0.03376135
-0.062937036 -0.0017719086 -0.034345817 0.024023116 0.007670706 0.04545427 -0.053161055 0.019530071
-0.030314445 -0.06573494 0.080265105 0.03872579 0.09277796 -0.017797133 0.045141194 -0.019312091
-0.08866545 0.08141267 -0.0145308 0.0030921367 0.019614693 0.005019988 0.009584437 -0.051636256
0.047611557 0.0723543 -0.008610141 -0.018741708 -0.08089586 -0.12905708 -0.05284754 -0.09828023
-0.071386866 -0.055699535 -0.007326509 -0.06408738 -0.047854736 0.00048432086 0.0684519 -0.05967851
-0.049482062 -0.038066357 -0.024846703 0.075427495 0.07299903 0.003267018 -0.017346779 -0.02037876
0.052214343 0.11116729 0.05616232 -0.030619705 0.09383755 0.07629479 0.096374795 0.025148932
0.109806135 -0.048046034 -0.08035703 -0.037676804 0.07545562 -0.0027381235 0.019737897 0.025579158
-0.13898154 -0.014790605 0.023512201 0.005215058 0.021178506 -0.03753707 -0.07251272 -0.014222931
-0.008748907 0.004147053 0.02395072 -0.031755354 -0.000291886 0.014962872 -0.013845906 0.045846287
0.07378597 0.053990055 0.111365765 0.058956597 0.060894005 -0.07802612 -0.11235833 -0.06968082
0.060144335 -0.007276918 -0.023460723 0.02555922 0.10125779 0.03288513 -0.03307948 -0.07636414
0.00777029 0.071586356 0.034771923 -0.086646564 0.012991726 -0.010857832 0.086821735 0.034144122
-0.026171058 -0.010184505 0.05955331 0.020324096 0.0322589 -0.006933636 0.003085081 -0.036144678
-0.09160868 0.016050281 -0.16903286 -0.07550573 0.1168431 0.08087037 0.15090993 0.07673987
0.093302615 0.036599968 0.0023944026 -0.08116637 -0.04090866 0.02852378 0.024973618 -0.07547456
-0.028060732 0.05841929 -0.057767577 0.06333248 0.025353337 0.033079404 0.061700642 0.057516072
0.07108361 0.0403834 0.09963765 -0.0016211192 0.0465283 -0.064451404 -0.040464908 -0.07570759
-0.010804758 0.036409397 0.07917688 -0.02108857 -0.016778316 -0.1014919 0.0011585375 -0.07394826
-0.00081515865 -0.0687025 -0.012984496 0.017458463 -0.03716119 -0.06453753 0.02294875 0.09398579
00000000: 0572 7ebd 3cfb 30bd 490a f03d 3251 ccbd
00000010: e962 b7bd 6c2d aabb c6c3 a73b 6480 57bc
00000020: 54f5 c53c 4aae fabb b551 cbbb cea7 913c
00000030: fa09 8f3b d251 593c 5b7e 3dbd 0bb4 56bd
00000040: 902d a63c 9ea1 fc3c 0ba1 b63b 37da 143d
00000050: 6182 e1bc a562 54bd 6485 89ba 39b2 30bd
00000060: eb92 9bbb bb3f 13bd 87ce 69bc be05 45bd
00000070: e120 5bba 629d a7bc c61b 9bbb 1813 783d
00000080: 554a 703d 3f7c 053d 71a9 5cba d32c afbd
00000090: 5331 8abd 184f 2d3d 5da0 ecba 21b6 8ebc
000000a0: 6309 a9bd 4dc5 c43c c322 82bc 3811 35bd
000000b0: fee0 9ebc 05f1 7bbd cf3f 653d c3b6 e7bb
000000c0: 79a9 f03c b3a9 383d f53e 57bd d83d 59bd
000000d0: 7e89 c43d 6d39 df3b 8202 883d 0aaf ae3c
000000e0: a964 4abd 4dff 8e3c eebc a23d 1e32 193d
000000f0: 87b5 5abd 3ecc 5b3d 37ee 82bd 7469 953c
00000100: a81e 38bc 45ee 3b3d cf0c 243d 7b88 cc3c
00000110: aae3 433d 513e b4bb 307a fbbc 6c2e 103d
00000120: 7a4d e6bc a81c 6c3d 43f1 12be 9122 423c
00000130: 2392 833d 919f 273d 353f 593d 6876 8abc
00000140: df2e 44bd dbbf 5ebc 39d5 c5bd 6a71 e43a
00000150: 710c fcbc 2302 a3bd 151c da3c d67a cd3b
00000160: a489 caba d895 a13d e91e 7ebd cc8f 503c
00000170: 5291 273c 3aca efbb 7f74 073c 5749 0abd
00000180: 22e5 80bd 633f e8ba 33ae 0cbd 20cc c43c
00000190: 8c5a fb3b 422e 3a3d 68bf 59bd 87fd 9f3c
000001a0: 0056 f8bc 0aa0 86bd 0862 a43d ef9e 1e3d
000001b0: 5f02 be3d 4bcb 91bc f9e5 383d 6434 9ebc
000001c0: 3b96 b5bd b0bb a63d 9812 6ebc 72a5 4a3b
000001d0: feae a03c b67e a43b 0b08 1d3c 8a80 53bd
000001e0: 5604 433d 7e2e 943d 8d11 0dbc 3688 99bc
000001f0: bbac a5bd 8a27 04be a976 58bd 2547 c9bd
00000200: 4733 92bd 3225 64bd 3613 f0bb 3f40 83bd
00000210: 5403 44bd 72ec fd39 8230 8c3d 7471 74bd
00000220: b4ad 4abd 78eb 1bbd 508b cbbc bb79 9a3d
00000230: 8480 953d 771b 563b d51a 8ebc 5bf1 a6bc
00000240: b5de 553d adab e33d 760a 663d 2dd6 fabc
00000250: e72d c03d 7140 9c3d 2660 c53d 2205 ce3c
00000260: 0ae2 e03d ebcb 44bd 3a92 a4bd fe52 1abd
00000270: 7a88 9a3d 1772 33bb 5fb1 a13c 628b d13c
00000280: 2d51 0ebe 4b54 72bc a99c c03c 14e3 aa3b
00000290: 8c7e ad3c 79c0 19bd 8d81 94bd 4c07 69bc
000002a0: 9357 0fbc 01e4 873b 4d34 c43c e711 02bd
000002b0: 4708 99b9 d526 753c f0d9 62bc 51c9 3b3d
000002c0: 191d 973d ad24 5d3d bc13 e43d 797c 713d
000002d0: fe6b 793d 29cc 9fbd 201c e6bd d1b4 8ebd
000002e0: e859 763d 3673 eebb b430 c0bc 9261 d13c
000002f0: 3f60 cf3d 8fb2 063d 597e 07bd cd64 9cbd
00000300: eb9d fe3b de9b 923d 016d 0e3d c173 b1bd
00000310: 40db 543c 0ce5 31bc 98cf b13d b5da 0b3d
00000320: b064 d6bc e9dc 26bc 2cee 733d b87e a63c
00000330: e921 043d 8e33 e3bb 122f 4a3b 710c 14bd
00000340: 559d bbbd e17b 833c f316 2dbe c0a2 9abd
00000350: 6f4b ef3d 5d9f a53d 2288 1a3e cb29 9d3d
00000360: 7115 bf3d d9e9 153d 69eb 1c3b 8e3a a6bd
00000370: d78f 27bd b4aa e93c 7995 cc3c 6892 9abd
00000380: 9fdf e5bc 1149 6f3d b29d 6cbd 76b4 813d
00000390: cdb1 cf3c 457e 073d d0b9 7c3d f995 6b3d
000003a0: 4994 913d 1069 253d d30e cc3d bc7b d4ba
000003b0: 7594 3e3d 19ff 83bd 88be 25bd 950c 9bbd
000003c0: 7106 31bc 0522 153d 7d27 a23d f0c1 acbc
000003d0: ae72 89bc fcda cfbd 11da 973a 2f72 97bd
000003e0: 5fb0 55ba e5b3 8cbd ecbc 54bc 0d05 8f3c
000003f0: 5536 18bd 412c 84bd 04ff bb3c 9f7b c03d

weight f4 [10, 200]
-0.40593222 -0.10904783 -0.06790103 -0.19344264 -0.5044234 -0.051810913 -0.29614735 -0.68855786
0.087930486 -0.041518804 0.12603028 0.107549146 -0.20752183 0.15011865 0.109837994 -0.01636347
0.2941157 0.052990004 0.011042423 -0.039279304 -0.011407756 -0.15135883 0.2725379 -0.018310485
-0.10969702 0.4112403 0.18636672 0.02551262 -0.15719052 -0.6117739 0.2205686 0.30966437
-0.25150457 0.5252662 0.12911946 0.54697144 0.26513007 -0.39699975 -0.34385645 -0.05173972
0.38134456 0.1538183 -0.022510966 -0.1397801 -0.44317633 0.17276092 -0.21729338 0.26684058
-0.3309784 0.18219307 -0.10174088 0.55351764 -0.10520166 0.020225067 -0.28989294 -0.45316246
0.00011371623 -0.5484057 0.22822699 -0.16569357 0.056068324 -0.21518967 0.06588915 0.15252781
0.35996595 0.25323775 -0.10577744 0.2093844 -0.48135602 0.63238144 0.21708082 -0.28635278
0.26498726 -0.18572725 0.32874778 0.18768243 -0.12974566 -0.05876196 -0.50681305 -0.06669455
0.13432361 -0.14144537 0.19938311 -0.35481003 0.16123207 -0.47690147 0.21367773 -0.5367208
0.15996325 -0.4235988 -0.14573331 -0.23352058 -0.0643426 0.4153026 -0.32318917 0.26222914
-0.3488626 -0.19206189 0.105104215 -0.038701784 -0.014828174 -0.048981834 0.22688861 -0.6858837
-0.1955926 0.16774462 -0.26934505 0.5129683 0.03558669 0.13218613 -0.532773 0.10403743
0.587724 -0.06339532 -0.28220245 0.053913586 -0.57247967 -0.28771898 -0.1773036 0.33016893
-0.2819696 -0.335649 -0.3228963 -0.23380099 -0.8871054 0.47018063 -0.08269904 -0.43078446
-0.29680714 0.15206586 -0.56802374 0.25133902 0.3983853 -0.22389333 0.05610745 0.097005166
0.13550483 -0.19883394 0.19979839 -0.44808456 0.01594468 0.13577749 -0.31444857 0.3173205
0.11451145 0.3352141 0.15007742 0.06987111 0.12430131 -0.119124025 -0.19086324 0.04953749
0.22760798 -0.14424488 0.20679614 -0.0046809427 0.70934814 -0.362868 -0.10104023 -0.2592311
0.15578787 0.14732783 -0.04469348 0.120067604 0.06444477 0.34918004 -0.50332963 0.4854372
-0.049129587 0.25052896 -0.088415585 -0.66405904 -0.7476567 -0.12169632 -0.6321692 -0.053076223
-0.31565708 0.77324146 -0.26444826 -0.59771353 -0.17022976 -0.30022076 0.14899203 -0.36789885
0.19824778 0.097218074 -0.15995903 -0.12720068 0.20729457 -0.2851436 -0.31417948 0.09436354
0.044838134 0.0415035 0.04049034 -0.05667396 -0.26113218 -0.034945946 0.2721012 -0.24872956
0.21122313 0.18702176 -0.029031659 0.47461614 -0.5965582 -0.008439821 0.2856373 0.16287665
0.39801332 0.20252384 0.21294592 -0.16033322 0.24863802 0.23798831 -0.093753055 0.074089035
-0.17231114 0.212108 0.033569027 -0.043764677 -0.24383105 0.48911732 -0.17109233 0.1433846
-0.06991965 0.24270517 -0.4141809 0.22071959 0.04969967 -0.57016474 0.2457052 0.59821635
-0.3344542 0.095756955 0.22677729 -0.20129868 -0.14073838 -0.12976117 -0.12171601 -0.14156461
0.08625576 -0.04495168 -0.25500903 -0.67341876 0.14653824 0.15529276 0.5587377 0.75072837
-0.07682021 -0.55208033 0.79878396 -0.095047146 0.18666719 0.33073366 0.55421317 -0.34286642
00000000: 59d6 cfbe 7854 dfbd b20f 8bbd d415 46be
00000010: e421 01bf ae37 54bd a0a0 97be 5445 30bf
00000020: e614 b43d 9f0f 2abd 150e 013e ba42 dc3d
00000030: 9a80 54be b4b8 193e bef2 e03d af0c 86bc
00000040: 5596 963e 0c0c 593d 47eb 343c 56e3 20bd
00000050: 99e7 3abc cffd 1abe 168a 8b3e dfff 95bc
00000060: d5a8 e0bd 178e d23e ebd6 3e3e d8ff d03c
00000070: 8df6 20be 379d 1cbf bcdc 613e 548c 9e3e
00000080: 35c5 80be d877 063f e437 043e 5206 0c3f
00000090: 21bf 873e 8d43 cbbe f40d b0be 07ed 53bd
000000a0: 983f c33e 8b82 1d3e eb68 b8bc 8422 0fbe
000000b0: 02e8 e2be 3de8 303e 2882 5ebe 549f 883e
000000c0: 0076 a9be d290 3a3e 865d d0bd 55b3 0d3f
000000d0: f873 d7bd 0aaf a53c d96c 94be e904 e8be
000000e0: f07a ee38 5164 0cbf 56b4 693e 93ab 29be
000000f0: e6a7 653d ae5a 5cbe e4f0 863d 4030 1c3e
00000100: 754d b83e 61a8 813e d8a1 d8bd dd68 563e
00000110: 4c74 f6be c0e3 213f 6f4a 5e3e d59c 92be
00000120: 69ac 873e 492f 3ebe a151 a83e d32f 403e
00000130: 0cdc 04be 62b0 70bd 80be 01bf 2797 88bd
00000140: 218c 093e 0ed7 10be 162b 4c3e a9a9 b5be
00000150: 051a 253e 6e2c f4be 56ce 5a3e 8966 09bf
00000160: 68cd 233e f1e1 d8be 1d3b 15be 0520 6fbe
00000170: 0ec6 83bd 8ba2 d43e 0d79 a5be e642 863e
00000180: 1e9e b2be dfab 44be e140 d73d c385 1ebd
00000190: dff1 72bc 2da1 48bd 7d55 683e 1396 2fbf
000001a0: 6d49 48be 3fc5 2b3e 98e7 89be e451 033f
000001b0: 59c3 113d cd5b 073e d063 08bf 9311 d53d
000001c0: 1475 163f 68d5 81bd d77c 90be 7ed4 5c3d
000001d0: 078e 12bf e74f 93be 138f 35be e70b a93e
000001e0: 525e 90be 30da abbe aa52 a5be 8769 6fbe
000001f0: 5719 63bf 84bb f03e 1d5e a9bd c88f dcbe
00000200: 1bf7 97be 27b7 1b3e 016a 11bf 82af 803e
00000210: 28f9 cb3e 4b44 65be edd0 653d a5aa c63d
00000220: c7c1 0a3e 209b 4bbe f397 4c3e 576b e5be
00000230: 6b9e 823c 4109 0b3e 67ff a0be d577 a23e
00000240: fb84 ea3d 2fa1 ab3e e5ad 193e 9618 8f3d
00000250: af91 fe3d 4cf7 f3bd a771 43be d3e7 4a3d
00000260: 1112 693e eeb4 13be 5ec2 533e 9862 99bb
00000270: d797 353f d6c9 b9be 2eee cebd f0b9 84be
00000280: db86 1f3e 1bdd 163e 8310 37bd 01e6 f53d
00000290: 9ffb 833d bac7 b23e 36da 00bf 3a8b f83e
000002a0: 1b3c 49bd 5545 803e 3b13 b5bd c6ff 29bf
000002b0: 6e66 3fbf ec3b f9bd d7d5 21bf 7466 59bd
000002c0: ce9d a1be 27f3 453f c365 87be c103 19bf
000002d0: b650 2ebe 89b6 99be 5e91 183e 3d5d bcbe
000002e0: 7701 4b3e 451a c73d 4dcc 23be e540 02be
000002f0: 0745 543e 58fe 91be 22dc a0be ac41 c13d
00000300: 31a8 373d 93ff 293d 33d9 253d f422 68bd
00000310: 1eb3 85be 7b23 0fbd d950 8b3e f6b2 7ebe
00000320: e04a 583e a282 3f3e cdd3 edbc e300 f33e
00000330: 0ab8 18bf 2d47 0abc 0d3f 923e 23c9 263e
00000340: 67c8 cb3e 6962 4f3e 7f0e 5a3e 642e 24be
00000350: f79a 7e3e 35b3 733e 9a01 c0bd febb 973d
00000360: 5572 30be d732 593e ad7f 093d 9742 33bd
00000370: d9ae 79be 966d fa3e d432 2fbe 6ad3 123e
00000380: 0932 8fbd b487 783e 850f d4be 5104 623e
00000390: e291 4b3d 51f6 11bf 259a 7b3e b524 193f
000003a0: 953d abbe 391c c43d 4e38 683e 3e21 4ebe
000003b0: b91d 10be 1de0 04be 3e46 f9bd 50f6 10be
000003c0: dca6 b03d 411f 38bd 8b90 82be 2c65 2cbf
000003d0: 1f0e 163e 1105 1f3e 6f09 0f3f bc2f 403f
000003e0: ea53 9dbd 2355 0dbf 1b7d 4c3f 14a8 c2bd
000003f0: af25 3f3e ec55 a93e eae0 0d3f 308c afbe
